
name: "example_network"
layer {
  name: "input"
  type: "Input"
  top: "input"
  input_param { shape: { dim: 1 dim: 160 } }
}

layer {
  name: "dense1"
  type: "InnerProduct"
  bottom: "input"
  top: "dense1"
  inner_product_param {
    num_output: 320
  }
}

layer {
  name: "relu1"
  type: "ReLU"
  bottom: "dense1"
  top: "dense1"
}

layer {
  name: "dense2"
  type: "InnerProduct"
  bottom: "dense1"
  top: "dense2"
  inner_product_param {
    num_output: 320
  }
}

layer {
  name: "relu2"
  type: "ReLU"
  bottom: "dense2"
  top: "dense2"
}

layer {
  name: "output1"
  type: "InnerProduct"
  bottom: "dense2"
  top: "output1"
  inner_product_param {
    num_output: 1
  }
}

layer {
  name: "Sigmoid1"
  type: "Sigmoid"
  bottom: "output1"
  top: "output1"
}

layer {
  name: "output2"
  type: "InnerProduct"
  bottom: "dense2"
  top: "output2"
  inner_product_param {
    num_output: 1
  }
}

layer {
  name: "Sigmoid2"
  type: "Sigmoid"
  bottom: "output2"
  top: "output2"
}

layer {
  name: "output3"
  type: "InnerProduct"
  bottom: "dense2"
  top: "output3"
  inner_product_param {
    num_output: 1
  }
}

layer {
  name: "Sigmoid3"
  type: "Sigmoid"
  bottom: "output3"
  top: "output3"
}

layer {
  name: "output4"
  type: "InnerProduct"
  bottom: "dense2"
  top: "output4"
  inner_product_param {
    num_output: 1
  }
}

layer {
  name: "Sigmoid4"
  type: "Sigmoid"
  bottom: "output4"
  top: "output4"
}

layer {
  name: "output5"
  type: "InnerProduct"
  bottom: "dense2"
  top: "output5"
  inner_product_param {
    num_output: 1
  }
}

layer {
  name: "Sigmoid5"
  type: "Sigmoid"
  bottom: "output5"
  top: "output5"
}

layer {
  name: "output6"
  type: "InnerProduct"
  bottom: "dense2"
  top: "output6"
  inner_product_param {
    num_output: 1
  }
}

layer {
  name: "Sigmoid6"
  type: "Sigmoid"
  bottom: "output6"
  top: "output6"
}

layer {
  name: "output7"
  type: "InnerProduct"
  bottom: "dense2"
  top: "output7"
  inner_product_param {
    num_output: 1
  }
}

layer {
  name: "Sigmoid7"
  type: "Sigmoid"
  bottom: "output7"
  top: "output7"
}

layer {
  name: "output8"
  type: "InnerProduct"
  bottom: "dense2"
  top: "output8"
  inner_product_param {
    num_output: 1
  }
}

layer {
  name: "Sigmoid8"
  type: "Sigmoid"
  bottom: "output8"
  top: "output8"
}

layer {
  name: "output9"
  type: "InnerProduct"
  bottom: "dense2"
  top: "output9"
  inner_product_param {
    num_output: 1
  }
}

layer {
  name: "Sigmoid9"
  type: "Sigmoid"
  bottom: "output9"
  top: "output9"
}

layer {
  name: "output10"
  type: "InnerProduct"
  bottom: "dense2"
  top: "output10"
  inner_product_param {
    num_output: 1
  }
}

layer {
  name: "Sigmoid10"
  type: "Sigmoid"
  bottom: "output10"
  top: "output10"
}

layer {
  name: "output11"
  type: "InnerProduct"
  bottom: "dense2"
  top: "output11"
  inner_product_param {
    num_output: 1
  }
}

layer {
  name: "Sigmoid11"
  type: "Sigmoid"
  bottom: "output11"
  top: "output11"
}

layer {
  name: "output12"
  type: "InnerProduct"
  bottom: "dense2"
  top: "output12"
  inner_product_param {
    num_output: 1
  }
}

layer {
  name: "Sigmoid12"
  type: "Sigmoid"
  bottom: "output12"
  top: "output12"
}

layer {
  name: "output13"
  type: "InnerProduct"
  bottom: "dense2"
  top: "output13"
  inner_product_param {
    num_output: 1
  }
}

layer {
  name: "Sigmoid13"
  type: "Sigmoid"
  bottom: "output13"
  top: "output13"
}

layer {
  name: "output14"
  type: "InnerProduct"
  bottom: "dense2"
  top: "output14"
  inner_product_param {
    num_output: 1
  }
}

layer {
  name: "Sigmoid14"
  type: "Sigmoid"
  bottom: "output14"
  top: "output14"
}

layer {
  name: "output15"
  type: "InnerProduct"
  bottom: "dense2"
  top: "output15"
  inner_product_param {
    num_output: 1
  }
}

layer {
  name: "Sigmoid15"
  type: "Sigmoid"
  bottom: "output15"
  top: "output15"
}

layer {
  name: "output16"
  type: "InnerProduct"
  bottom: "dense2"
  top: "output16"
  inner_product_param {
    num_output: 1
  }
}

layer {
  name: "Sigmoid16"
  type: "Sigmoid"
  bottom: "output16"
  top: "output16"
}

layer {
  name: "output17"
  type: "InnerProduct"
  bottom: "dense2"
  top: "output17"
  inner_product_param {
    num_output: 1
  }
}

layer {
  name: "Sigmoid17"
  type: "Sigmoid"
  bottom: "output17"
  top: "output17"
}

layer {
  name: "output18"
  type: "InnerProduct"
  bottom: "dense2"
  top: "output18"
  inner_product_param {
    num_output: 1
  }
}

layer {
  name: "Sigmoid18"
  type: "Sigmoid"
  bottom: "output18"
  top: "output18"
}

layer {
  name: "output19"
  type: "InnerProduct"
  bottom: "dense2"
  top: "output19"
  inner_product_param {
    num_output: 1
  }
}

layer {
  name: "Sigmoid19"
  type: "Sigmoid"
  bottom: "output19"
  top: "output19"
}

layer {
  name: "output20"
  type: "InnerProduct"
  bottom: "dense2"
  top: "output20"
  inner_product_param {
    num_output: 1
  }
}

layer {
  name: "Sigmoid20"
  type: "Sigmoid"
  bottom: "output20"
  top: "output20"
}

layer {
  name: "output21"
  type: "InnerProduct"
  bottom: "dense2"
  top: "output21"
  inner_product_param {
    num_output: 1
  }
}

layer {
  name: "Sigmoid21"
  type: "Sigmoid"
  bottom: "output21"
  top: "output21"
}

layer {
  name: "output22"
  type: "InnerProduct"
  bottom: "dense2"
  top: "output22"
  inner_product_param {
    num_output: 1
  }
}

layer {
  name: "Sigmoid22"
  type: "Sigmoid"
  bottom: "output22"
  top: "output22"
}

layer {
  name: "output23"
  type: "InnerProduct"
  bottom: "dense2"
  top: "output23"
  inner_product_param {
    num_output: 1
  }
}

layer {
  name: "Sigmoid23"
  type: "Sigmoid"
  bottom: "output23"
  top: "output23"
}

layer {
  name: "output24"
  type: "InnerProduct"
  bottom: "dense2"
  top: "output24"
  inner_product_param {
    num_output: 1
  }
}

layer {
  name: "Sigmoid24"
  type: "Sigmoid"
  bottom: "output24"
  top: "output24"
}

layer {
  name: "output25"
  type: "InnerProduct"
  bottom: "dense2"
  top: "output25"
  inner_product_param {
    num_output: 1
  }
}

layer {
  name: "Sigmoid25"
  type: "Sigmoid"
  bottom: "output25"
  top: "output25"
}

layer {
  name: "output26"
  type: "InnerProduct"
  bottom: "dense2"
  top: "output26"
  inner_product_param {
    num_output: 1
  }
}

layer {
  name: "Sigmoid26"
  type: "Sigmoid"
  bottom: "output26"
  top: "output26"
}

layer {
  name: "output27"
  type: "InnerProduct"
  bottom: "dense2"
  top: "output27"
  inner_product_param {
    num_output: 1
  }
}

layer {
  name: "Sigmoid27"
  type: "Sigmoid"
  bottom: "output27"
  top: "output27"
}

layer {
  name: "output28"
  type: "InnerProduct"
  bottom: "dense2"
  top: "output28"
  inner_product_param {
    num_output: 1
  }
}

layer {
  name: "Sigmoid28"
  type: "Sigmoid"
  bottom: "output28"
  top: "output28"
}

layer {
  name: "output29"
  type: "InnerProduct"
  bottom: "dense2"
  top: "output29"
  inner_product_param {
    num_output: 1
  }
}

layer {
  name: "Sigmoid29"
  type: "Sigmoid"
  bottom: "output29"
  top: "output29"
}

layer {
  name: "output30"
  type: "InnerProduct"
  bottom: "dense2"
  top: "output30"
  inner_product_param {
    num_output: 1
  }
}

layer {
  name: "Sigmoid30"
  type: "Sigmoid"
  bottom: "output30"
  top: "output30"
}

layer {
  name: "output31"
  type: "InnerProduct"
  bottom: "dense2"
  top: "output31"
  inner_product_param {
    num_output: 1
  }
}

layer {
  name: "Sigmoid31"
  type: "Sigmoid"
  bottom: "output31"
  top: "output31"
}

layer {
  name: "output32"
  type: "InnerProduct"
  bottom: "dense2"
  top: "output32"
  inner_product_param {
    num_output: 1
  }
}

layer {
  name: "Sigmoid32"
  type: "Sigmoid"
  bottom: "output32"
  top: "output32"
}

layer {
  name: "output33"
  type: "InnerProduct"
  bottom: "dense2"
  top: "output33"
  inner_product_param {
    num_output: 1
  }
}

layer {
  name: "Sigmoid33"
  type: "Sigmoid"
  bottom: "output33"
  top: "output33"
}

layer {
  name: "output34"
  type: "InnerProduct"
  bottom: "dense2"
  top: "output34"
  inner_product_param {
    num_output: 1
  }
}

layer {
  name: "Sigmoid34"
  type: "Sigmoid"
  bottom: "output34"
  top: "output34"
}

layer {
  name: "output35"
  type: "InnerProduct"
  bottom: "dense2"
  top: "output35"
  inner_product_param {
    num_output: 1
  }
}

layer {
  name: "Sigmoid35"
  type: "Sigmoid"
  bottom: "output35"
  top: "output35"
}

layer {
  name: "output36"
  type: "InnerProduct"
  bottom: "dense2"
  top: "output36"
  inner_product_param {
    num_output: 1
  }
}

layer {
  name: "Sigmoid36"
  type: "Sigmoid"
  bottom: "output36"
  top: "output36"
}

layer {
  name: "output37"
  type: "InnerProduct"
  bottom: "dense2"
  top: "output37"
  inner_product_param {
    num_output: 1
  }
}

layer {
  name: "Sigmoid37"
  type: "Sigmoid"
  bottom: "output37"
  top: "output37"
}

layer {
  name: "output38"
  type: "InnerProduct"
  bottom: "dense2"
  top: "output38"
  inner_product_param {
    num_output: 1
  }
}

layer {
  name: "Sigmoid38"
  type: "Sigmoid"
  bottom: "output38"
  top: "output38"
}

layer {
  name: "output39"
  type: "InnerProduct"
  bottom: "dense2"
  top: "output39"
  inner_product_param {
    num_output: 1
  }
}

layer {
  name: "Sigmoid39"
  type: "Sigmoid"
  bottom: "output39"
  top: "output39"
}

layer {
  name: "output40"
  type: "InnerProduct"
  bottom: "dense2"
  top: "output40"
  inner_product_param {
    num_output: 1
  }
}

layer {
  name: "Sigmoid40"
  type: "Sigmoid"
  bottom: "output40"
  top: "output40"
}

layer {
  name: "output41"
  type: "InnerProduct"
  bottom: "dense2"
  top: "output41"
  inner_product_param {
    num_output: 1
  }
}

layer {
  name: "Sigmoid41"
  type: "Sigmoid"
  bottom: "output41"
  top: "output41"
}

layer {
  name: "output42"
  type: "InnerProduct"
  bottom: "dense2"
  top: "output42"
  inner_product_param {
    num_output: 1
  }
}

layer {
  name: "Sigmoid42"
  type: "Sigmoid"
  bottom: "output42"
  top: "output42"
}

layer {
  name: "output43"
  type: "InnerProduct"
  bottom: "dense2"
  top: "output43"
  inner_product_param {
    num_output: 1
  }
}

layer {
  name: "Sigmoid43"
  type: "Sigmoid"
  bottom: "output43"
  top: "output43"
}

layer {
  name: "output44"
  type: "InnerProduct"
  bottom: "dense2"
  top: "output44"
  inner_product_param {
    num_output: 1
  }
}

layer {
  name: "Sigmoid44"
  type: "Sigmoid"
  bottom: "output44"
  top: "output44"
}

layer {
  name: "output45"
  type: "InnerProduct"
  bottom: "dense2"
  top: "output45"
  inner_product_param {
    num_output: 1
  }
}

layer {
  name: "Sigmoid45"
  type: "Sigmoid"
  bottom: "output45"
  top: "output45"
}

layer {
  name: "output46"
  type: "InnerProduct"
  bottom: "dense2"
  top: "output46"
  inner_product_param {
    num_output: 1
  }
}

layer {
  name: "Sigmoid46"
  type: "Sigmoid"
  bottom: "output46"
  top: "output46"
}

layer {
  name: "output47"
  type: "InnerProduct"
  bottom: "dense2"
  top: "output47"
  inner_product_param {
    num_output: 1
  }
}

layer {
  name: "Sigmoid47"
  type: "Sigmoid"
  bottom: "output47"
  top: "output47"
}

layer {
  name: "output48"
  type: "InnerProduct"
  bottom: "dense2"
  top: "output48"
  inner_product_param {
    num_output: 1
  }
}

layer {
  name: "Sigmoid48"
  type: "Sigmoid"
  bottom: "output48"
  top: "output48"
}

layer {
  name: "output49"
  type: "InnerProduct"
  bottom: "dense2"
  top: "output49"
  inner_product_param {
    num_output: 1
  }
}

layer {
  name: "Sigmoid49"
  type: "Sigmoid"
  bottom: "output49"
  top: "output49"
}

layer {
  name: "output50"
  type: "InnerProduct"
  bottom: "dense2"
  top: "output50"
  inner_product_param {
    num_output: 1
  }
}

layer {
  name: "Sigmoid50"
  type: "Sigmoid"
  bottom: "output50"
  top: "output50"
}

layer {
  name: "output51"
  type: "InnerProduct"
  bottom: "dense2"
  top: "output51"
  inner_product_param {
    num_output: 1
  }
}

layer {
  name: "Sigmoid51"
  type: "Sigmoid"
  bottom: "output51"
  top: "output51"
}

layer {
  name: "output52"
  type: "InnerProduct"
  bottom: "dense2"
  top: "output52"
  inner_product_param {
    num_output: 1
  }
}

layer {
  name: "Sigmoid52"
  type: "Sigmoid"
  bottom: "output52"
  top: "output52"
}

layer {
  name: "output53"
  type: "InnerProduct"
  bottom: "dense2"
  top: "output53"
  inner_product_param {
    num_output: 1
  }
}

layer {
  name: "Sigmoid53"
  type: "Sigmoid"
  bottom: "output53"
  top: "output53"
}

layer {
  name: "output54"
  type: "InnerProduct"
  bottom: "dense2"
  top: "output54"
  inner_product_param {
    num_output: 1
  }
}

layer {
  name: "Sigmoid54"
  type: "Sigmoid"
  bottom: "output54"
  top: "output54"
}

layer {
  name: "output55"
  type: "InnerProduct"
  bottom: "dense2"
  top: "output55"
  inner_product_param {
    num_output: 1
  }
}

layer {
  name: "Sigmoid55"
  type: "Sigmoid"
  bottom: "output55"
  top: "output55"
}

layer {
  name: "output56"
  type: "InnerProduct"
  bottom: "dense2"
  top: "output56"
  inner_product_param {
    num_output: 1
  }
}

layer {
  name: "Sigmoid56"
  type: "Sigmoid"
  bottom: "output56"
  top: "output56"
}

layer {
  name: "output57"
  type: "InnerProduct"
  bottom: "dense2"
  top: "output57"
  inner_product_param {
    num_output: 1
  }
}

layer {
  name: "Sigmoid57"
  type: "Sigmoid"
  bottom: "output57"
  top: "output57"
}

layer {
  name: "output58"
  type: "InnerProduct"
  bottom: "dense2"
  top: "output58"
  inner_product_param {
    num_output: 1
  }
}

layer {
  name: "Sigmoid58"
  type: "Sigmoid"
  bottom: "output58"
  top: "output58"
}

layer {
  name: "output59"
  type: "InnerProduct"
  bottom: "dense2"
  top: "output59"
  inner_product_param {
    num_output: 1
  }
}

layer {
  name: "Sigmoid59"
  type: "Sigmoid"
  bottom: "output59"
  top: "output59"
}

layer {
  name: "output60"
  type: "InnerProduct"
  bottom: "dense2"
  top: "output60"
  inner_product_param {
    num_output: 1
  }
}

layer {
  name: "Sigmoid60"
  type: "Sigmoid"
  bottom: "output60"
  top: "output60"
}

layer {
  name: "output61"
  type: "InnerProduct"
  bottom: "dense2"
  top: "output61"
  inner_product_param {
    num_output: 1
  }
}

layer {
  name: "Sigmoid61"
  type: "Sigmoid"
  bottom: "output61"
  top: "output61"
}

layer {
  name: "output62"
  type: "InnerProduct"
  bottom: "dense2"
  top: "output62"
  inner_product_param {
    num_output: 1
  }
}

layer {
  name: "Sigmoid62"
  type: "Sigmoid"
  bottom: "output62"
  top: "output62"
}

layer {
  name: "output63"
  type: "InnerProduct"
  bottom: "dense2"
  top: "output63"
  inner_product_param {
    num_output: 1
  }
}

layer {
  name: "Sigmoid63"
  type: "Sigmoid"
  bottom: "output63"
  top: "output63"
}

layer {
  name: "output64"
  type: "InnerProduct"
  bottom: "dense2"
  top: "output64"
  inner_product_param {
    num_output: 1
  }
}

layer {
  name: "Sigmoid64"
  type: "Sigmoid"
  bottom: "output64"
  top: "output64"
}

layer {
  name: "output65"
  type: "InnerProduct"
  bottom: "dense2"
  top: "output65"
  inner_product_param {
    num_output: 1
  }
}

layer {
  name: "Sigmoid65"
  type: "Sigmoid"
  bottom: "output65"
  top: "output65"
}

layer {
  name: "output66"
  type: "InnerProduct"
  bottom: "dense2"
  top: "output66"
  inner_product_param {
    num_output: 1
  }
}

layer {
  name: "Sigmoid66"
  type: "Sigmoid"
  bottom: "output66"
  top: "output66"
}

layer {
  name: "output67"
  type: "InnerProduct"
  bottom: "dense2"
  top: "output67"
  inner_product_param {
    num_output: 1
  }
}

layer {
  name: "Sigmoid67"
  type: "Sigmoid"
  bottom: "output67"
  top: "output67"
}

layer {
  name: "output68"
  type: "InnerProduct"
  bottom: "dense2"
  top: "output68"
  inner_product_param {
    num_output: 1
  }
}

layer {
  name: "Sigmoid68"
  type: "Sigmoid"
  bottom: "output68"
  top: "output68"
}

layer {
  name: "output69"
  type: "InnerProduct"
  bottom: "dense2"
  top: "output69"
  inner_product_param {
    num_output: 1
  }
}

layer {
  name: "Sigmoid69"
  type: "Sigmoid"
  bottom: "output69"
  top: "output69"
}

layer {
  name: "output70"
  type: "InnerProduct"
  bottom: "dense2"
  top: "output70"
  inner_product_param {
    num_output: 1
  }
}

layer {
  name: "Sigmoid70"
  type: "Sigmoid"
  bottom: "output70"
  top: "output70"
}

layer {
  name: "output71"
  type: "InnerProduct"
  bottom: "dense2"
  top: "output71"
  inner_product_param {
    num_output: 1
  }
}

layer {
  name: "Sigmoid71"
  type: "Sigmoid"
  bottom: "output71"
  top: "output71"
}

layer {
  name: "output72"
  type: "InnerProduct"
  bottom: "dense2"
  top: "output72"
  inner_product_param {
    num_output: 1
  }
}

layer {
  name: "Sigmoid72"
  type: "Sigmoid"
  bottom: "output72"
  top: "output72"
}

layer {
  name: "output73"
  type: "InnerProduct"
  bottom: "dense2"
  top: "output73"
  inner_product_param {
    num_output: 1
  }
}

layer {
  name: "Sigmoid73"
  type: "Sigmoid"
  bottom: "output73"
  top: "output73"
}

layer {
  name: "output74"
  type: "InnerProduct"
  bottom: "dense2"
  top: "output74"
  inner_product_param {
    num_output: 1
  }
}

layer {
  name: "Sigmoid74"
  type: "Sigmoid"
  bottom: "output74"
  top: "output74"
}

layer {
  name: "output75"
  type: "InnerProduct"
  bottom: "dense2"
  top: "output75"
  inner_product_param {
    num_output: 1
  }
}

layer {
  name: "Sigmoid75"
  type: "Sigmoid"
  bottom: "output75"
  top: "output75"
}

layer {
  name: "output76"
  type: "InnerProduct"
  bottom: "dense2"
  top: "output76"
  inner_product_param {
    num_output: 1
  }
}

layer {
  name: "Sigmoid76"
  type: "Sigmoid"
  bottom: "output76"
  top: "output76"
}

layer {
  name: "output77"
  type: "InnerProduct"
  bottom: "dense2"
  top: "output77"
  inner_product_param {
    num_output: 1
  }
}

layer {
  name: "Sigmoid77"
  type: "Sigmoid"
  bottom: "output77"
  top: "output77"
}

layer {
  name: "output78"
  type: "InnerProduct"
  bottom: "dense2"
  top: "output78"
  inner_product_param {
    num_output: 1
  }
}

layer {
  name: "Sigmoid78"
  type: "Sigmoid"
  bottom: "output78"
  top: "output78"
}

layer {
  name: "output79"
  type: "InnerProduct"
  bottom: "dense2"
  top: "output79"
  inner_product_param {
    num_output: 1
  }
}

layer {
  name: "Sigmoid79"
  type: "Sigmoid"
  bottom: "output79"
  top: "output79"
}

layer {
  name: "output80"
  type: "InnerProduct"
  bottom: "dense2"
  top: "output80"
  inner_product_param {
    num_output: 1
  }
}

layer {
  name: "Sigmoid80"
  type: "Sigmoid"
  bottom: "output80"
  top: "output80"
}

layer {
  name: "output81"
  type: "InnerProduct"
  bottom: "dense2"
  top: "output81"
  inner_product_param {
    num_output: 1
  }
}

layer {
  name: "Sigmoid81"
  type: "Sigmoid"
  bottom: "output81"
  top: "output81"
}

layer {
  name: "output82"
  type: "InnerProduct"
  bottom: "dense2"
  top: "output82"
  inner_product_param {
    num_output: 1
  }
}

layer {
  name: "Sigmoid82"
  type: "Sigmoid"
  bottom: "output82"
  top: "output82"
}

layer {
  name: "output83"
  type: "InnerProduct"
  bottom: "dense2"
  top: "output83"
  inner_product_param {
    num_output: 1
  }
}

layer {
  name: "Sigmoid83"
  type: "Sigmoid"
  bottom: "output83"
  top: "output83"
}

layer {
  name: "output84"
  type: "InnerProduct"
  bottom: "dense2"
  top: "output84"
  inner_product_param {
    num_output: 1
  }
}

layer {
  name: "Sigmoid84"
  type: "Sigmoid"
  bottom: "output84"
  top: "output84"
}

layer {
  name: "output85"
  type: "InnerProduct"
  bottom: "dense2"
  top: "output85"
  inner_product_param {
    num_output: 1
  }
}

layer {
  name: "Sigmoid85"
  type: "Sigmoid"
  bottom: "output85"
  top: "output85"
}

layer {
  name: "output86"
  type: "InnerProduct"
  bottom: "dense2"
  top: "output86"
  inner_product_param {
    num_output: 1
  }
}

layer {
  name: "Sigmoid86"
  type: "Sigmoid"
  bottom: "output86"
  top: "output86"
}

layer {
  name: "output87"
  type: "InnerProduct"
  bottom: "dense2"
  top: "output87"
  inner_product_param {
    num_output: 1
  }
}

layer {
  name: "Sigmoid87"
  type: "Sigmoid"
  bottom: "output87"
  top: "output87"
}

layer {
  name: "output88"
  type: "InnerProduct"
  bottom: "dense2"
  top: "output88"
  inner_product_param {
    num_output: 1
  }
}

layer {
  name: "Sigmoid88"
  type: "Sigmoid"
  bottom: "output88"
  top: "output88"
}

layer {
  name: "output89"
  type: "InnerProduct"
  bottom: "dense2"
  top: "output89"
  inner_product_param {
    num_output: 1
  }
}

layer {
  name: "Sigmoid89"
  type: "Sigmoid"
  bottom: "output89"
  top: "output89"
}

layer {
  name: "output90"
  type: "InnerProduct"
  bottom: "dense2"
  top: "output90"
  inner_product_param {
    num_output: 1
  }
}

layer {
  name: "Sigmoid90"
  type: "Sigmoid"
  bottom: "output90"
  top: "output90"
}

layer {
  name: "output91"
  type: "InnerProduct"
  bottom: "dense2"
  top: "output91"
  inner_product_param {
    num_output: 1
  }
}

layer {
  name: "Sigmoid91"
  type: "Sigmoid"
  bottom: "output91"
  top: "output91"
}

layer {
  name: "output92"
  type: "InnerProduct"
  bottom: "dense2"
  top: "output92"
  inner_product_param {
    num_output: 1
  }
}

layer {
  name: "Sigmoid92"
  type: "Sigmoid"
  bottom: "output92"
  top: "output92"
}

layer {
  name: "output93"
  type: "InnerProduct"
  bottom: "dense2"
  top: "output93"
  inner_product_param {
    num_output: 1
  }
}

layer {
  name: "Sigmoid93"
  type: "Sigmoid"
  bottom: "output93"
  top: "output93"
}

layer {
  name: "output94"
  type: "InnerProduct"
  bottom: "dense2"
  top: "output94"
  inner_product_param {
    num_output: 1
  }
}

layer {
  name: "Sigmoid94"
  type: "Sigmoid"
  bottom: "output94"
  top: "output94"
}

layer {
  name: "output95"
  type: "InnerProduct"
  bottom: "dense2"
  top: "output95"
  inner_product_param {
    num_output: 1
  }
}

layer {
  name: "Sigmoid95"
  type: "Sigmoid"
  bottom: "output95"
  top: "output95"
}

layer {
  name: "output96"
  type: "InnerProduct"
  bottom: "dense2"
  top: "output96"
  inner_product_param {
    num_output: 1
  }
}

layer {
  name: "Sigmoid96"
  type: "Sigmoid"
  bottom: "output96"
  top: "output96"
}

layer {
  name: "output97"
  type: "InnerProduct"
  bottom: "dense2"
  top: "output97"
  inner_product_param {
    num_output: 1
  }
}

layer {
  name: "Sigmoid97"
  type: "Sigmoid"
  bottom: "output97"
  top: "output97"
}

layer {
  name: "output98"
  type: "InnerProduct"
  bottom: "dense2"
  top: "output98"
  inner_product_param {
    num_output: 1
  }
}

layer {
  name: "Sigmoid98"
  type: "Sigmoid"
  bottom: "output98"
  top: "output98"
}

layer {
  name: "output99"
  type: "InnerProduct"
  bottom: "dense2"
  top: "output99"
  inner_product_param {
    num_output: 1
  }
}

layer {
  name: "Sigmoid99"
  type: "Sigmoid"
  bottom: "output99"
  top: "output99"
}

layer {
  name: "output100"
  type: "InnerProduct"
  bottom: "dense2"
  top: "output100"
  inner_product_param {
    num_output: 1
  }
}

layer {
  name: "Sigmoid100"
  type: "Sigmoid"
  bottom: "output100"
  top: "output100"
}
